…
        "model.add(Dense(64,activation=\"relu\"))\r\n",
        "model.add(Dense(4,activation=\"softmax\"))\r\n",
        "\r\n",
        "model.summary()"
      ],
      "execution_count": 13,
      "outputs": [
        {
          "output_type": "stream",
          "text": [
            "Model: \"sequential_4\"\n",
            "_________________________________________________________________\n",
            "Layer (type)                 Output Shape              Param #   \n",
            "=================================================================\n",
            "conv2d_17 (Conv2D)           (None, 224, 224, 64)      1792      \n",
            "_________________________________________________________________\n",
            "conv2d_18 (Conv2D)           (None, 224, 224, 64)      36928     \n",
            "_________________________________________________________________\n",
            "max_pooling2d_6 (MaxPooling2 (None, 112, 112, 64)      0         \n",
            "_________________________________________________________________\n",
            "conv2d_19 (Conv2D)           (None, 112, 112, 128)     73856     \n",
            "_________________________________________________________________\n",
            "conv2d_20 (Conv2D)           (None, 112, 112, 128)     147584    \n",
            "_________________________________________________________________\n",
            "max_pooling2d_7 (MaxPooling2 (None, 56, 56, 128)       0         \n",
            "_________________________________________________________________\n",
            "conv2d_21 (Conv2D)           (None, 56, 56, 256)       295168    \n",
            "_________________________________________________________________\n",
            "conv2d_22 (Conv2D)           (None, 56, 56, 256)       590080    \n",
            "_________________________________________________________________\n",
            "conv2d_23 (Conv2D)           (None, 56, 56, 256)       590080    \n",
            "_________________________________________________________________\n",
            "max_pooling2d_8 (MaxPooling2 (None, 28, 28, 256)       0         \n",
            "_________________________________________________________________\n",
            "conv2d_24 (Conv2D)           (None, 28, 28, 512)       1180160   \n",
            "_________________________________________________________________\n",
            "conv2d_25 (Conv2D)           (None, 28, 28, 512)       2359808   \n",
            "_________________________________________________________________\n",
            "conv2d_26 (Conv2D)           (None, 28, 28, 512)       2359808   \n",
            "_________________________________________________________________\n",
            "max_pooling2d_9 (MaxPooling2 (None, 14, 14, 512)       0         \n",
            "_________________________________________________________________\n",
            "conv2d_27 (Conv2D)           (None, 14, 14, 512)       2359808   \n",
            "_________________________________________________________________\n",
            "conv2d_28 (Conv2D)           (None, 14, 14, 512)       2359808   \n",
            "_________________________________________________________________\n",
            "conv2d_29 (Conv2D)           (None, 14, 14, 512)       2359808   \n",
            "_________________________________________________________________\n",
            "max_pooling2d_10 (MaxPooling (None, 7, 7, 512)         0         \n",
            "_________________________________________________________________\n",
            "flatten_1 (Flatten)          (None, 25088)             0         \n",
            "_________________________________________________________________\n",
            "dense (Dense)                (None, 128)               3211392   \n",
            "_________________________________________________________________\n",
            "dense_1 (Dense)              (None, 64)                8256      \n",
            "_________________________________________________________________\n",
            "dense_2 (Dense)              (None, 4)                 260       \n",
            "=================================================================\n",
            "Total params: 17,934,596\n",
            "Trainable params: 17,934,596\n",
            "Non-trainable params: 0\n",
            "_________________________________________________________________\n"
          ],
          "name": "stdout"
        }
      ]
    },
    {
      "cell_type": "code",
…
